model_relief_classifier.pth (torch, 56208 bytes, 4 tensors)

classifier.0.weight f4 [128, 100]
0	0xbb188b34	-0.002327633
1	0x3c38be18	0.011275791
2	0xbd23c06f	-0.03997844
3	0xbd73bcdb	-0.05950628
4	0x3cae2e89	0.021262424
5	0x3d6d0415	0.05786522
6	0xbd339fb3	-0.043853473
7	0x3d8d4b3f	0.06899118
8	0x3e796cb0	0.24357867
9	0x3d2f33fd	0.04277419
10	0xbdc1d6ab	-0.09464773
11	0xbc4ea9c1	-0.012613715
12	0x3d1b3db1	0.03790063
13	0x3dbcf88b	0.09227093
14	0xbd918213	-0.07104888
15	0x3e2caf41	0.16863729
16	0xbcbe017b	-0.023194065
17	0x3d81037c	0.06299493
18	0x3dc8ae07	0.09798818
19	0x3ddc0d13	0.10744681
20	0xbc5d42a3	-0.013504657
21	0x3d48cce0	0.04902351
22	0xbd02a390	-0.031894267
23	0x3df3d666	0.11906128
24	0x3e0a4888	0.13504231
25	0xbde14188	-0.10998827
26	0x3e064fb1	0.13116337
27	0x3c84f27a	0.016228903
28	0x3e2d4246	0.16919813
29	0x3cc257ac	0.023723446
30	0x3dca0ff9	0.09866328
31	0xbd8340b4	-0.064088255
32	0x3e38528f	0.18000244
33	0x3df9f412	0.12204756
34	0xbdb6bb56	-0.0892245
35	0x3e48ac86	0.19597062
36	0xbd9992a5	-0.07498673
37	0x3e3ae15c	0.1825003
38	0x3dc9e6ae	0.09858452
39	0xbd7a6d04	-0.06113912
40	0x3d2bbb96	0.041926943
41	0x3d85a117	0.06524866
42	0x3d4837f2	0.04888148
43	0xbe004bfa	-0.12528983
44	0x3dc9bbc3	0.09850266
45	0x3e315109	0.17316069
46	0x3d86da9e	0.06584667
47	0x3dc561ef	0.0963782
48	0x3e4e0ee4	0.20122868
49	0x3dee9552	0.11649574
50	0x3dd3414e	0.1031519
51	0xbc20d5ea	-0.009816626
52	0x3cf581a7	0.02996905
53	0xbe077a75	-0.13230307
54	0xbb9f2d55	-0.004857699
55	0x3c9e18ab	0.019298872
56	0xbd9328ee	-0.07185541
57	0xbccc1245	-0.024911055
58	0xbdf097e7	-0.11747723
59	0xbc13d3c2	-0.009022655
60	0xbdeb72e8	-0.11496526
61	0x3db0b1e6	0.086276814
62	0xbd485166	-0.048905753
63	0xbdacb7ac	-0.0843347
64	0xbdca84fe	-0.098886475
65	0x3e313697	0.1730598
66	0x3d88673f	0.06660318
67	0x3d23885d	0.039924968
68	0x3cd09d9d	0.02546578
69	0x3d923594	0.071391255
70	0x3e06ff06	0.13183221
71	0x3cc1fa38	0.023678884
72	0xbdafd948	-0.08586365
73	0x3d8a3b29	0.06749565
74	0x3ce7f8c8	0.02831687
75	0x3d21df7a	0.039519764
76	0xbdd69688	-0.1047793
77	0x3e07157e	0.13191792
78	0x3d8bebed	0.06832109
79	0xbd2ab661	-0.041677836
80	0x3dc1461a	0.09437199
81	0x3cb23292	0.02175263
82	0xbd5a3147	-0.05326965
83	0xbc481334	-0.01221161
84	0xbd6ee856	-0.05832704
85	0xbdbf67cd	-0.0934597
86	0x3e07011a	0.13184014
87	0x3e23d534	0.159993
88	0x3dbc42bf	0.09192418
89	0xbe169ae0	-0.14707518
90	0xbcb1d3d3	-0.021707451
91	0xbd9b3f12	-0.07580389
92	0x3b475a5b	0.0030418846
93	0x3dbf9179	0.093539186
94	0xbafa997b	-0.0019119227
95	0x3aafbd9e	0.0013407951
96	0xbe1228bc	-0.14273351
97	0x3dcbbab0	0.09947717
98	0x3e5f7924	0.21823555
99	0xbd59ba54	-0.053156212
100	0x3b1f5593	0.002431248
101	0x3d14bcfa	0.036313035
102	0x3ce395ce	0.027781393
103	0x3d3a2b6a	0.04545156
104	0x3ce907d8	0.028446123
105	0xbce3606f	-0.027755944
106	0xbda595ba	-0.08085199
107	0xbd25d8e1	-0.040490035
108	0x3dc081f1	0.09399784
109	0x3beffca7	0.0073238197
110	0xbd1fdacf	-0.03902703
111	0xbda339c8	-0.07970005
112	0x3dc531e9	0.0962866
113	0x3d9e6425	0.07733945
114	0x3c51238e	0.012764825
115	0x3cac5aff	0.021039484
116	0x3d93c2e2	0.07214905
117	0x3c57dde8	0.013175465
118	0xbc15bc27	-0.009139097
119	0xbcf37e62	-0.02972335
120	0xbad4fbd0	-0.0016249362
121	0x3d8ea02c	0.06964144
122	0xbd68a9e3	-0.05680264
123	0xbbf590a0	-0.0074940473
124	0x3b559ed1	0.0032595883
125	0xbcdfc7c9	-0.027316945
126	0xbdd43952	-0.103624955
127	0x3d908dbf	0.07058286
128	0x3cee04f5	0.029055098
129	0x3d8acc98	0.067773044
130	0xbdba5c10	-0.09099591
131	0x3daa34d5	0.08310858
132	0xbda4226e	-0.080143794
133	0xbc535a07	-0.012899882
134	0xbdd27ded	-0.10277925
135	0x3ba57e20	0.0050504357
136	0xbc80e207	-0.015732778
137	0x3c90cc50	0.017675549
138	0x3d912eea	0.07089026
139	0x3da59c4c	0.08086452
140	0xbd514324	-0.05108942
141	0xbc87aea1	-0.016562762
142	0x3d9fbb21	0.07799364
143	0x3c79bd8c	0.015242945
144	0xbb60b20b	-0.003428581
145	0x3d9efbce	0.07762872
146	0x3c940436	0.018068414
147	0xbc50920b	-0.012730132
148	0xbbf2d800	-0.007411003
149	0x3d2fb287	0.042894866
150	0x3ce713bb	0.02820765
151	0x3b13e677	0.0022567788
152	0xbd0fcdbf	-0.035108324
153	0xbb94e00b	-0.0045433096
154	0xbcd086f0	-0.025454968
155	0xbddc3c69	-0.1075371
156	0xbd1aa01c	-0.03775035
157	0xbd94d176	-0.07266514
158	0xbda14b85	-0.07875732
159	0x3d2ca1e4	0.04214658
160	0xbdb827f8	-0.089919984
161	0xbc843af1	-0.016141387
162	0xbd9a1d6c	-0.07525143
163	0xbcf7e9d3	-0.030262863
164	0xbdd21ccb	-0.10259398
165	0xbdc21edd	-0.09478543
166	0xbdcf0019	-0.101074405
167	0xbd4e7a70	-0.050409734
168	0xbd51da5b	-0.05123363
169	0xbc46d173	-0.0121348975
170	0x3d522388	0.051303416
171	0x3ce671ae	0.028130379
172	0x3bfb7714	0.0076741073
173	0xbcec4601	-0.028841974
174	0x3cd8bbbf	0.026456712
175	0xbd8933c9	-0.0669933
176	0xbd9dabbf	-0.076987736
177	0xbb65182f	-0.0034957041
178	0xbcdbb3d4	-0.026819147
179	0x3d8e5710	0.069501996
180	0x3db41dd7	0.08794754
181	0xbd69eafd	-0.057108868
182	0x3d379f51	0.04482967
183	0x3d937986	0.07200913
184	0xbda8138f	-0.082068555
185	0x3b553a10	0.0032535829
186	0x3ddf8394	0.109137684
187	0x383cf5e1	4.5051685e-05
188	0xbd6adfaa	-0.05734221
189	0x3c77e7b1	0.015130923
190	0x3d9d636d	0.076849796
191	0xbd8ec9c9	-0.06972081
192	0xbdd551b6	-0.10415976
193	0x3d376d5b	0.044782024
194	0x3d852414	0.06501022
195	0xbdc376f5	-0.09544174
196	0x3d85400c	0.065063566
197	0x3b0824ce	0.002077389
198	0xbd982c5c	-0.07430336
199	0xbcbde4ee	-0.023180451
200	0xbe0c20d9	-0.13684405
201	0xbd7b8440	-0.06140542
202	0xbd66f2b4	-0.056383803
203	0xbcd56e22	-0.026053492
204	0xbe319a36	-0.17343983
205	0x3cf015a0	0.029307187
206	0x3dbff929	0.093736954
207	0x3cede11c	0.029038005
208	0x3dfe85bf	0.12427854
209	0x3d8b98d7	0.06816261
210	0x3e57edc3	0.21086793
211	0xbd8252d8	-0.063634574
212	0xbe0b2fc5	-0.13592441
213	0xbd8a4a22	-0.06752421
214	0x3bad00da	0.0052796425
215	0x3dcfca10	0.10145962
216	0x3e635bae	0.22202942
217	0xbda37bff	-0.07982635
218	0x3e19cd2b	0.15019672
219	0xbdac144e	-0.0840231
220	0xbe18a8b7	-0.1490811
221	0xbe357ba0	-0.1772294
222	0xbb810eda	-0.003938538
223	0x3cac6b22	0.021047179
224	0xbe7a6659	-0.24453105
225	0x3d26c089	0.04071096
226	0x3c23367b	0.00996172
227	0xbdc1068b	-0.09425076
228	0x3da27853	0.07933106
229	0x3cb1603d	0.021652335
230	0xbdb7c610	-0.08973324
231	0x3cccc84a	0.024997849
232	0xbcd3d1bf	-0.02585685
233	0xbe4de3cf	-0.20106433
234	0x3e0ad6a5	0.13558443
235	0xbc846467	-0.016161157
236	0x3dafa1dd	0.08575795
237	0x3daeb569	0.08530695
238	0xbe2a62e0	-0.1663928
239	0xbe4540ae	-0.19262955
240	0xbc8e35e5	-0.017359683
241	0xbd853d43	-0.06505825
242	0xbdb80333	-0.08984985
243	0x3d667063	0.056259524
244	0xbe268d61	-0.1626487
245	0x3d9d8270	0.076908946
246	0xbe0c21f2	-0.13684824
247	0xbc338011	-0.010955826
248	0x3ea0ee2c	0.3143171
249	0x3bd1bfc0	0.006401032
250	0x3cb4685d	0.02202242
251	0x3e0f5264	0.13996273
252	0xbd680035	-0.056640822
253	0x3c9c3bce	0.019071486
254	0x3c70997d	0.014685032
255	0x3d83b36e	0.06430708

classifier.0.bias f4 [128]
0	0xbd7e1ba9	-0.062038098
1	0xbdb2cba6	-0.08730249
2	0x3e3fa2f7	0.1871451
3	0x3e59d6ff	0.21273421
4	0x3c7e5792	0.015523808
5	0xbdb6ad9e	-0.089198336
6	0xbcb2954a	-0.021799702
7	0x3d50f272	0.051012464
8	0x3ce8da25	0.028424332
9	0x3d91ce5b	0.07119437
10	0xbb2371b7	-0.0024939606
11	0x3d37a093	0.04483087
12	0xbd48088a	-0.04883627
13	0x3d85482b	0.065079056
14	0xbd3bb518	-0.045827
15	0x3da45cb3	0.080254935
16	0x3d3b46d5	0.045721848
17	0x3c6921cf	0.014229252
18	0xbe0eeec4	-0.1395827
19	0xbb08865b	-0.0020832035
20	0x3d3f82c8	0.046755582
21	0x3d77fde3	0.06054486
22	0x3e13eeae	0.14446518
23	0x3e2f7ed6	0.17138228
24	0x3e49ad6a	0.19695058
25	0xbddd78e7	-0.10814076
26	0xbd4afab1	-0.049555484
27	0x3d03a7da	0.032142498
28	0xbd42aa5c	-0.04752575
29	0xbd0ed273	-0.03486867
30	0xbc86107d	-0.016365284
31	0x3d84b899	0.06480522
32	0xbd28da8b	-0.041224044
33	0xbdf5c7f0	-0.12001026
34	0xbdcc32dc	-0.09970638
35	0x3de9ce7e	0.114163384
36	0xbdb407cb	-0.08790549
37	0x3d89dd69	0.06731684
38	0x3e276a38	0.16349113
39	0xbd7577f7	-0.05992886
40	0xbcfc4589	-0.030794876
41	0xbdc947a7	-0.0982812
42	0x3e011d3e	0.12608811
43	0xbd10e02d	-0.03537004
44	0xbd771259	-0.060320232
45	0x3dbd31a4	0.09237984
46	0xbd50eb59	-0.051005695
47	0x3d8d4643	0.06898167
48	0x3bb68794	0.0055703614
49	0x3e21c56a	0.15797964
50	0x3dfde7d4	0.12397733
51	0x3e173d7f	0.14769553
52	0xbd9d62eb	-0.07684883
53	0x3c45f77d	0.012082932
54	0xbbdd75f5	-0.0067584463
55	0x3d9fb659	0.07798452
56	0xbc0392de	-0.008030621
57	0x3db8c774	0.09022418
58	0x3d4fa097	0.05069026
59	0x3dc43e8b	0.095822416
60	0x3d6edc78	0.058315724
61	0x3df48fa4	0.1194146
62	0x3e014c58	0.12626779
63	0x3da5d670	0.08097541
64	0xbdb2aa96	-0.08723943
65	0xbdd3460d	-0.103160955
66	0x3dfefb43	0.12450268
67	0xbbc53c6a	-0.006019165
68	0x3ae92c65	0.001778972
69	0x3d8ad493	0.067788266
70	0xbd978aea	-0.07399543
71	0xbd017e8d	-0.03161483
72	0xbc9d94e4	-0.019236036
73	0xbc8f29f7	-0.017476065
74	0x3d91e90a	0.07124527
75	0x3bba233f	0.005680471
76	0xbdb155e6	-0.08658962
77	0x3d0513c7	0.032489564
78	0x3d60da02	0.05489541
79	0x3d7a77e5	0.061149497
80	0x3cb8e3a1	0.02256948
81	0x3e409d5f	0.18810032
82	0xbd54738d	-0.05186801
83	0x3e15c1b3	0.14624672
84	0xbcf7fcf1	-0.030271979
85	0x3d439cbe	0.047756903
86	0x3de74634	0.11292687
87	0x3d013b7b	0.031550866
88	0xbc84ea5a	-0.016225029
89	0xbcf62def	-0.0300512
90	0xbd082782	-0.033240803
91	0xbda9f4c8	-0.082986414
92	0x3daff07c	0.08590791
93	0x395f7b24	0.0002131281
94	0xbc360f0a	-0.011111984
95	0xbcd66aa0	-0.02617389
96	0xbe0dce82	-0.13848308
97	0xbdd5b00b	-0.10433968
98	0x3d81e538	0.06342548
99	0x3d3ec3ef	0.046573576
100	0x3d8acacf	0.06776964
101	0xbb9f7037	-0.004865672
102	0xbdcb2ba7	-0.099204354
103	0x3bafef5a	0.005369109
104	0x3e200c98	0.15629804
105	0x3d0866b8	0.033301085
106	0x3d2acb44	0.041697755
107	0xbd41eedd	-0.04734694
108	0x3db13f41	0.08654643
109	0xbdba1147	-0.09085327
110	0xbd1b717f	-0.037950035
111	0x3dc3445f	0.09534525
112	0xbdd73c44	-0.10509542
113	0x3a7c5454	0.0009625603
114	0x3d28c2ca	0.04120139
115	0x3d1d2352	0.038363762
116	0x3bbd827b	0.0057833767
117	0xbdba1019	-0.09085102
118	0xbb95f377	-0.0045761424
119	0x3d3306db	0.04370771
120	0xbcba3c3e	-0.022733804
121	0x3bf5396d	0.0074836523
122	0xbdc32316	-0.095281765
123	0xbd8b6833	-0.06806984
124	0x3ca4f881	0.020138027
125	0xbc851e44	-0.016249783
126	0x3d63ac52	0.05558426
127	0xbd67258b	-0.05643229

classifier.3.weight f4 [4, 128]
0	0xbd913b93	-0.07091441
1	0x3d3d1382	0.046161182
2	0xbd364d50	-0.044507325
3	0x3d8aeb3e	0.0678315
4	0xbe4b6586	-0.19862947
5	0xbd986700	-0.07441521
6	0xbb6dcf36	-0.0036286837
7	0xbe02996f	-0.12753843
8	0xbd889e10	-0.06670773
9	0xbe3fa203	-0.18714146
10	0xbe64aec2	-0.2233229
11	0xbc84801a	-0.016174365
12	0xbd43eded	-0.047834326
13	0xbe7304a3	-0.23732238
14	0xbe7c8ff3	-0.24664287
15	0x3e69328f	0.22773193
16	0x3e0a7a64	0.13523251
17	0x3dee0fd5	0.116241135
18	0xbdc3263c	-0.09528777
19	0xbe2f1906	-0.1709939
20	0xbda69b95	-0.08135144
21	0x3e817ae0	0.2528906
22	0xbe8ede31	-0.27903894
23	0x3d8ed915	0.06974999
24	0x3d96fae9	0.07372076
25	0x3ccec0be	0.025238391
26	0xbd07cca4	-0.033154145
27	0xbd20819b	-0.0391861
28	0x3e7bb317	0.24580036
29	0x3e4bd573	0.19905643
30	0x3e0c8a86	0.13724717
31	0x3d687c9a	0.056759454
32	0xbd63e9d6	-0.055642925
33	0xbd37f2d6	-0.04490932
34	0xbd9da4eb	-0.07697471
35	0x3e00dab3	0.12583427
36	0xbdc0f80c	-0.09422311
37	0x3e221706	0.15829095
38	0x3c459a1c	0.012060668
39	0xbe0a1b60	-0.13487005
40	0xbe6dd0cd	-0.23224182
41	0xbd21817f	-0.039430138
42	0x3e47bbf6	0.19505295
43	0x3d4d0314	0.050051764
44	0x3e6f480d	0.23367329
45	0xbe1a4a5b	-0.15067427
46	0xbe10127f	-0.14069556
47	0x3dcca77e	0.09992884
48	0xbe6e72ad	-0.23285933
49	0x3dd1fdb4	0.10253468
50	0x3d66c3d7	0.05633911
51	0xbe6427d5	-0.2228082
52	0xbb601ae0	-0.0034195706
53	0xbe6f924a	-0.23395649
54	0x3e858ff8	0.26086402
55	0xbe2aef1f	-0.1669278
56	0xbc718f64	-0.01474366
57	0xbd158a11	-0.036508624
58	0x3e5251c4	0.20539004
59	0x3c9ee01a	0.01939397
60	0xbe6c8ea2	-0.23101285
61	0xbe537877	-0.20651422
62	0x3e2267bb	0.15859883
63	0x3e73d268	0.23810732
64	0x3be0558d	0.006846136
65	0xbe2996ad	-0.16561384
66	0xbd923e55	-0.07140795
67	0xbdc1e9be	-0.09468411
68	0xbdd7cf5d	-0.10537598
69	0x3da5a0c3	0.080873035
70	0xbcc1c5b7	-0.023653848
71	0xbdf4d414	-0.11954513
72	0xbd00b470	-0.03142208
73	0xbd6c895f	-0.057748195
74	0x3e8779dd	0.26460162
75	0xbcb897a6	-0.02253325
76	0xbd05fb83	-0.032710563
77	0xbdfc160b	-0.12308892
78	0xbe401a39	-0.18760003
79	0x3e883e4c	0.2661003
80	0xbe2658ab	-0.16244762
81	0x3dc103d2	0.09424557
82	0x3e818e66	0.25303954
83	0xbe69a04f	-0.22815059
84	0x3e22f4cd	0.15913697
85	0x3e3553b0	0.17707705
86	0x3d475c6a	0.048672117
87	0x3e392304	0.18079764
88	0xbcda08d5	-0.02661554
89	0x3e502220	0.20325518
90	0xbe977f6c	-0.29589403
91	0x3d98ceba	0.07461305
92	0xbc427acc	-0.011870097
93	0xbe67ab81	-0.22624017
94	0xbd49ae78	-0.049238652
95	0x3bdc8d45	0.006730708
96	0x3de4ca9f	0.111714594
97	0xbd9c68db	-0.07637187
98	0xbe1ff5d7	-0.15621124
99	0x3e53aa24	0.20670372
100	0x3e1f3ad7	0.1554979
101	0xbe0e1650	-0.13875699
102	0xbb8a0395	-0.004211853
103	0xbdd691b5	-0.1047701
104	0x3dd4fe71	0.10400093
105	0xbe58adf8	-0.21160114
106	0xbe757f9b	-0.23974459
107	0xbd5df063	-0.05418433
108	0x3e42ee3a	0.19036189
109	0x3e500a56	0.20316443
110	0xbc27ecb3	-0.010249305
111	0x3e1cf8c5	0.15329273
112	0x3e4ab0d9	0.19794025
113	0xbe817cac	-0.2529043
114	0x3df9e860	0.12202525
115	0x3d301454	0.042988136
116	0x3dd7d4d9	0.10538644
117	0x3ce206fa	0.027591217
118	0x3db01137	0.085970335
119	0xbe97279c	-0.29522407
120	0x3d603f06	0.054747604
121	0x3e1f2e69	0.15545048
122	0xbd92c172	-0.07165803
123	0x3e2d76a6	0.16939792
124	0xbdb4e70d	-0.08833132
125	0xbe2d8178	-0.1694392
126	0xbdcb9451	-0.099403985
127	0xbdb1f0d7	-0.08688515
128	0x3e0fd878	0.1404742
129	0xbd1b8912	-0.037972517
130	0xbe8f393d	-0.27973357
131	0xbe8f3812	-0.27972466
132	0xbe71668f	-0.23574279
133	0x3c53fd72	0.012938844
134	0xbd28bf91	-0.041198317
135	0x3e633a6f	0.2219026
136	0x3cda894c	0.026676796
137	0x3daf3651	0.08555282
138	0x3e2c365f	0.16817616
139	0x3cc07c98	0.02349691
140	0x3e45ac25	0.19303949
141	0x3e03fc3a	0.12889186
142	0x3d481c1a	0.048854925
143	0xbde7a9e8	-0.11311704
144	0xbe761214	-0.24030334
145	0xbe15ecd5	-0.14641126
146	0x3e4a3b40	0.19749165
147	0x3d529cdf	0.051419135
148	0x3e456783	0.19277768
149	0xbe0e960b	-0.13924424
150	0x3de56a57	0.11201923
151	0xbe8aed36	-0.27134103
152	0xbe7ea02d	-0.2486579
153	0x3d9a5579	0.07535834
154	0x3ca6c04c	0.020355366
155	0xbd8f2e48	-0.06991249
156	0xbe96ac30	-0.29428244
157	0xbe9c007c	-0.3046912
158	0x3e4c7618	0.19966924
159	0x3daea14b	0.08526858
160	0xbc648785	-0.013948326
161	0x3e5a6bc9	0.2133018
162	0x3e5a6e3f	0.21331118
163	0xbe79af1b	-0.24383204
164	0xbceb0dab	-0.02869304
165	0xbe50fbc0	-0.20408535
166	0xbe78ef39	-0.24310006
167	0x3d9af9ec	0.075672
168	0xbe6dff3f	-0.232419
169	0x3e3c7e54	0.18407565
170	0xbe75d6dc	-0.24007744
171	0xbe8dae1d	-0.276719
172	0xbdab6c2f	-0.08370244
173	0xbe743ac2	-0.2385054
174	0x3e194604	0.14968115
175	0xbdce124b	-0.10062083
176	0x3da58709	0.080823965
177	0xbe8cbaf6	-0.2748639
178	0xbd0cf0b4	-0.03440924
179	0xbe864293	-0.26222667
180	0x3d231d56	0.0398229
181	0xbd011103	-0.031510364
182	0xbd97f87c	-0.074204415
183	0x3e5b4933	0.21414642
184	0x3d6032c4	0.054735914
185	0xbe5d01e6	-0.21582755
186	0xbe5cb950	-0.21555066
187	0xbe70ac21	-0.23503162
188	0xbd68ea11	-0.056863848
189	0x3d6c9767	0.057761576
190	0xbe759b1c	-0.23984951
191	0xbe582885	-0.21109207
192	0x3bae92db	0.005327565
193	0x3d76ab0d	0.06022172
194	0xbe9b4d16	-0.3033225
195	0x3d944ae7	0.07240849
196	0xbe9d1cb4	-0.3068596
197	0xbea08093	-0.31348094
198	0xbc9dfa62	-0.01928443
199	0xbe7e1150	-0.24811292
200	0x3e2416a8	0.16024268
201	0xbd403be1	-0.046932105
202	0xbe1dcd1a	-0.15410271
203	0xbd2bf5ff	-0.041982647
204	0xbd56ab7e	-0.05240964
205	0xbea247b6	-0.31695336
206	0x3e345184	0.1760922
207	0xbdfa41a9	-0.12219555
208	0x3ddb4baa	0.10707791
209	0xbea1200c	-0.31469762
210	0xbdacfffa	-0.08447261
211	0xbe8f1b0e	-0.2795033
212	0xbe2a769d	-0.1664681
213	0xbe5a0090	-0.21289277
214	0xbea23b77	-0.31685993
215	0x3d869b7d	0.06572626
216	0x3d821134	0.063509375
217	0xbe9d1174	-0.30677378
218	0x3ded833e	0.11597298
219	0x3cbc8059	0.02301042
220	0xbe1c3083	-0.15252881
221	0x3c145fdc	0.009056058
222	0x3e453254	0.1925748
223	0xbda5b746	-0.08091597
224	0x3e5259f3	0.20542125
225	0xbc107e44	-0.008819167
226	0x3ea2269e	0.31670088
227	0xbd398f72	-0.045302816
228	0xbe30005b	-0.17187636
229	0x3d5f877e	0.054572575
230	0xbd62e30f	-0.05539232
231	0x3e62f771	0.22164704
232	0xbe6fcbbc	-0.23417562
233	0x3df7576f	0.120772235
234	0x3db91d58	0.090388
235	0xbd558fa4	-0.05213894
236	0xbe259942	-0.16171744
237	0xbe1980ed	-0.14990588
238	0xbc36042e	-0.011109395
239	0xbe1b67d4	-0.15176326
240	0x3dd24d99	0.10268707
241	0xbba71f73	-0.0051001846
242	0x3df199b1	0.117968924
243	0xbe99d8d1	-0.3004823
244	0x3e474d17	0.19463001
245	0x3d32e578	0.04367587
246	0x3e1622b8	0.14661682
247	0x3d020c66	0.031750105
248	0x3cab1177	0.020882351
249	0xbe9182a3	-0.2841998
250	0x3d9aa2c5	0.07550577
251	0x3e450b57	0.19242607
252	0x3dda42cf	0.10657274
253	0x3dd12dc3	0.102138065
254	0xbe4d3756	-0.2004064
255	0x3e445a2e	0.19175026

classifier.3.bias f4 [4]
0	0x3cc9c0f9	0.02462815
1	0xbe315026	-0.1731573
2	0x3dd2a799	0.10285873
3	0xbd98eee9	-0.074674435
